HW1_Regression_ph25/model.npy (npy, 1384 bytes, 1 tensors)

array f8 [163]
0	0x3f9c08af308f47b1	0.027376878107879758
1	0xbf845a741716f71f	-0.009938151316301323
2	0xbf8bae50e5e6a3a8	-0.013516075149554954
3	0xbf7f0026ede05359	-0.007568504397586683
4	0xbf831affce8a59e8	-0.009328840723623125
5	0xbf1f3ca06375e6c4	-0.00011915902074646339
6	0x3f19c37bad88a00e	9.828035707271107e-05
7	0x3f5eadc9ffd7c44a	0.0018724892282728938
8	0x3f5c29945d15788f	0.0017188977111213565
9	0x3f90cdc2e08f49df	0.016409916835820822
10	0x3f97cae9d770fec9	0.02323499085855366
11	0x3f9bc609633cf1ce	0.02712263744546011
12	0x3f9ccb1b0a3c3dca	0.028118536472048018
13	0x3f9970c4d79bd2cb	0.024844241771421232
14	0x3fa1205b2807c688	0.03344998229648605
15	0x3fa515970ba0a3f7	0.04118034378945617
16	0x3fa4290b93a27c24	0.03937565018826941
17	0x3fa8cb3e532f826e	0.048425624517908314
18	0x3fb34bb30043a4fe	0.07537382847262461
19	0x3fa196d56bcc359d	0.03435389462365921
20	0x3f8c8f1e48c0b9e6	0.013944851489296316
21	0x3fa9a3d423e0fd23	0.05007803857778927
22	0xbf8baf8610be1c26	-0.013518378625816462
23	0x3fba13103a9123f3	0.10185338430268569
24	0xbfa1dd0a2742de90	-0.034889523785236354
25	0xbfa5066631005714	-0.041064446908576496
26	0x3fcf5a827f06e4cc	0.24494963839041473
27	0x3fe1f2a1ea11e71a	0.5608682223966952
28	0xbfa99dbee7312269	-0.050031629296943
29	0xbfa73bf17f3db625	-0.0453792064498482
30	0xbfa75fbe5d3b6da9	-0.04565234077537223
31	0x3f90057c4820ee06	0.015645925428755113
32	0x3fba72dcead15928	0.10331516964774734
33	0x3f57c55e57700fbd	0.0014508649162516673
34	0xbf9967c66a728636	-0.024809932944327616
35	0x3fb10ca25970bdee	0.06659903224566907
36	0x3fd051014edc1156	0.2549441595185916
37	0x3faab30bae804567	0.05214725976123696
38	0x3f986274f60afe86	0.02381308318831412
39	0x3fb60a22a3948afe	0.0860921525350413
40	0xbf4890ce817936cd	-0.0007496841744314087
41	0xbf7b3030613da155	-0.006637753471160875
42	0xbf9dc15effaa809e	-0.02905796466313914
43	0x3fa92d701662bc5b	0.04917478822005058
44	0x3f9f5f8383e9308a	0.030637793470575526
45	0xbfb5c554d13592f6	-0.08504228694580349
46	0xbf6fcb595a18cb28	-0.003881144061574377
47	0xbf997c53a65727b8	-0.024888331439605088
48	0xbf978fd3c1c41c62	-0.023009594632665283
49	0xbf9992c79af3b44a	-0.02497398265125054
50	0x3f6d912f61fa90ce	0.0036092687076508595
51	0xbf8e3756fa06f304	-0.014753989701483679
52	0xbfae009e33963525	-0.058598464772425175
53	0xbf82962c30dc563e	-0.009075494042501405
54	0x3fc38377dca8c0a2	0.1524495913922737
55	0x3f6407bac3f28508	0.0024450919878097367
56	0xbf904459e561bd24	-0.01588573896918634
57	0x3f418aa03ec332be	0.0005353243300532868
58	0xbf80605db09f4224	-0.007996303513125254
59	0x3f7b208cdaf1d71b	0.006622839179831331
60	0xbf8ca967fa2a46a3	-0.013994991609510626
61	0xbfa2d949f64517f8	-0.036814032852404865
62	0x3f8099a250685cee	0.008105533675048151
63	0x3fbcf339a8a6860c	0.11308632247394018
64	0x3f81b5d5ecce1202	0.00864760521813768
65	0x3f721349d6e2dd3c	0.004412926135209102
66	0xbf7e30854c018713	-0.007370491686829589
67	0xbf8792c639d04d82	-0.011510418547948435
68	0xbf8753dbf7fe93d3	-0.01139041758126239
69	0xbf9d80d4959c2240	-0.028811761504615285
70	0xbf9f14d6e966d52f	-0.030352933879574436
71	0x3f863b9b184b7e03	0.010855876616402865
72	0x3fb86ce1a9e94f3c	0.095411399824397
73	0xbf833f08306b712e	-0.009397567727710578
74	0x3f845a41849ef7f0	0.009937774524470172
75	0x3f8089302dfe231e	0.008074165729128387
76	0xbf65dad45bb49d34	-0.002667822611005422
77	0xbf8ba70ab557ed2e	-0.013502200755275053
78	0x3f8ec8362e43c755	0.015030310904396474
79	0xbf4560da321f66b1	-0.0006524148377550968
80	0xbf91bff2ca3545cd	-0.01733378752880359
81	0x3fb1447ef6c3dd7f	0.06745141529596842
82	0x3f5b0a0e63fd6205	0.0016503468068177496
83	0x3f96b002faca9983	0.022155806119053444
84	0x3f9eccdbad6b11a3	0.03007834669075894
85	0xbfaa92490f317507	-0.05189731893981713
86	0x3fa70a7cab6af4f3	0.04500188438894694
87	0x3fc8737bf07a1072	0.19102429620773226
88	0xbfd5997e2389f70e	-0.33749345274542086
89	0x3fb5da8192600a9a	0.08536538909542415
90	0x3fea6622cbe4c6f3	0.824967764119917
91	0x3f99c05ba2481197	0.025147849826696236
92	0x3f6bc572ba60ec01	0.00339004905529583
93	0xbfad976923e6acae	-0.05779579699750435
94	0xbf80f093f036abb2	-0.008271365898357395
95	0xbfa317eaabef173e	-0.037291844833403406
96	0x3faa52f644e47a60	0.051414199743011535
97	0x3f6c02167b86e94f	0.0034189643012868874
98	0xbf9fbf5b50518117	-0.03100340535854781
99	0xbfb6b07441cc61cb	-0.08862997633367013
100	0x3f7618d8edf6d3c4	0.005394790059132629
101	0x3f70f3282db5e16c	0.004138142535673555
102	0xbf73ac066b666a74	-0.004802727772040261
103	0xbf856b0fd5e9e24b	-0.010458110538125306
104	0xbf84f1fbb24b4759	-0.01022717130527766
105	0xbf6fc0701254dc0a	-0.0038759411715108038
106	0xbf832005ac40a8fa	-0.009338421172362821
107	0x3f6e2f093ee9f147	0.0036845379430003075
108	0x3f838d6a9cfdec44	0.00954707423783508
109	0xbfb3faf3f985cca2	-0.07804798929082549
110	0x3fb5e75c81b516b6	0.0855615441006091
111	0xbf8d059a8ab49337	-0.014170844419433599
112	0xbfa24932c7c1c489	-0.035714709171665034
113	0xbf3eacb2687ea9b8	-0.0004680572096683838
114	0x3f92e13035d0d473	0.018437150272991375
115	0xbfaaa9895d5189be	-0.05207471145765251
116	0x3fb0faa4f71468ed	0.06632452995509981
117	0x3fcc0ce9f18a9b8c	0.21914409917846134
118	0x3f95e880c4dbd315	0.021394741072941665
119	0x3f91e7937ee308f9	0.01748495542484194
120	0x3f9318b246198b74	0.01864889672141197
121	0x3f92239c839bedaf	0.01771397164610072
122	0x3fa4e607f3c1d4dd	0.04081749773551178
123	0x3fa5761417451576	0.041916492310103345
124	0x3fa104dc1dfcd390	0.03324020258006677
125	0x3fa6d6980f8f270e	0.0446059721940185
126	0x3fb5bc274da62548	0.08490224500396437
127	0xbf42283b3b37fd17	-0.0005541123595661804
128	0x3f6878da2424411d	0.002987314278591792
129	0xbf4eaf14d55018bc	-0.0009363986706609965
130	0x3f62d517180b6f9a	0.0022988749554837097
131	0x3f38c032ed632982	0.0003776668867315967
132	0x3f5c2b4bf4988d9a	0.0017193071129292027
133	0xbf649962b7ad9ad2	-0.0025145462108640904
134	0x3f520a7c98692c3c	0.0011011330367576419
135	0x3f41793f81b18c48	0.0005332527247329322
136	0xbf5ccb4431c56646	-0.0017574468575588683
137	0xbf45a9bb7dfb4457	-0.0006611028183788431
138	0x3f458ba13dd87062	0.0006575143158360603
139	0xbf64bfe2711b0424	-0.0025329039279715793
140	0x3f4ff465fb4f9676	0.0009751794774472539
141	0x3f341c7d201cbdb5	0.0003068738443401068
142	0xbf400fdf9503ac9d	-0.0004901735028658597
143	0xbf677d6b348f6b85	-0.002867421517732396
144	0x3f405e5dd51d8a69	0.0004995306173721351
145	0xbf9d52b485c1a154	-0.02863580767044145
146	0xbf6a1992402c64ee	-0.003186021467069914
147	0x3f923b3161e9a56a	0.017803927994838466
148	0xbf71d103312388e4	-0.004349720448063563
149	0xbf6583bc717ce2bc	-0.0026262932332453397
150	0xbf8aef95fd2a70a4	-0.013152286327845104
151	0xbfa86e29e07ba3ed	-0.0477154814269126
152	0xbfaaffaf2ce2e8d8	-0.05273196623734727
153	0xbf9f7929178caca7	-0.030735628187511434
154	0xbfa41b7a0fc141ad	-0.03927213136978778
155	0x3f581db6215ca837	0.0014719275108725624
156	0xbfa66f60b3c14f69	-0.043818494742167875
157	0xbfa284541c57beb8	-0.03616583677273638
158	0x3f7bc34287620a66	0.006778011205940437
159	0x3fac63c9edb34905	0.055448827997354434
160	0xbfa1584ee2d22145	-0.033876862705315015
161	0xbfafe1d405ec2161	-0.06226980755133372
162	0xbf72e493c8ac617d	-0.004612519531996259
